…
.linear_c.1.proj.weight', 'decode_head.linear_c.2.proj.bias', 'decode_head.linear_c.2.proj.weight', 'decode_head.linear_c.3.proj.bias', 'decode_head.linear_c.3.proj.weight', 'decode_head.linear_fuse.weight']\n","You should probably TRAIN this model on a down-stream task to be able to use it for predictions and inference.\n"]},{"output_type":"execute_result","data":{"text/plain":["SegformerForSemanticSegmentation(\n","  (segformer): SegformerModel(\n","    (encoder): SegformerEncoder(\n","      (patch_embeddings): ModuleList(\n","        (0): SegformerOverlapPatchEmbeddings(\n","          (proj): Conv2d(3, 32, kernel_size=(7, 7), stride=(4, 4), padding=(3, 3))\n","          (layer_norm): LayerNorm((32,), eps=1e-05, elementwise_affine=True)\n","        )\n","        (1): SegformerOverlapPatchEmbeddings(\n","          (proj): Conv2d(32, 64, kernel_size=(3, 3), stride=(2, 2), padding=(1, 1))\n","          (layer_norm): LayerNorm((64,), eps=1e-05, elementwise_affine=True)\n","        )\n","        (2): SegformerOverlapPatchEmbeddings(\n","          (proj): Conv2d(64, 160, kernel_size=(3, 3), stride=(2, 2), padding=(1, 1))\n","          (layer_norm): LayerNorm((160,), eps=1e-05, elementwise_affine=True)\n","        )\n","        (3): SegformerOverlapPatchEmbeddings(\n","          (proj): Conv2d(160, 256, kernel_size=(3, 3), stride=(2, 2), padding=(1, 1))\n","          (layer_norm): LayerNorm((256,), eps=1e-05, elementwise_affine=True)\n","        )\n","      )\n","      (block): ModuleList(\n","        (0): ModuleList(\n","          (0): SegformerLayer(\n","            (layer_norm_1): LayerNorm((32,), eps=1e-05, elementwise_affine=True)\n","            (attention): SegformerAttention(\n","              (self): SegformerEfficientSelfAttention(\n","                (query): Linear(in_features=32, out_features=32, bias=True)\n","                (key): Linear(in_features=32, out_features=32, bias=True)\n","                (value): Linear(in_features=32, out_features=32, bias=True)\n","                (dropout): Dropout(p=0.0, inplace=False)\n","                (sr): Conv2d(32, 32, kernel_size=(8, 8), stride=(8, 8))\n","                (layer_norm): LayerNorm((32,), eps=1e-05, elementwise_affine=True)\n","              )\n","              (output): SegformerSelfOutput(\n","                (dense): Linear(in_features=32, out_features=32, bias=True)\n","                (dropout): Dropout(p=0.0, inplace=False)\n","              )\n","            )\n","            (drop_path): Identity()\n","            (layer_norm_2): LayerNorm((32,), eps=1e-05, elementwise_affine=True)\n","            (mlp): SegformerMixFFN(\n","              (dense1): Linear(in_features=32, out_features=128, bias=True)\n","              (dwconv): SegformerDWConv(\n","                (dwconv): Conv2d(128, 128, kernel_size=(3, 3), stride=(1, 1), padding=(1, 1), groups=128)\n","              )\n","              (intermediate_act_fn): GELUActivation()\n","              (dense2): Linear(in_features=128, out_features=32, bias=True)\n","              (dropout): Dropout(p=0.0, inplace=False)\n","            )\n","          )\n","          (1): SegformerLayer(\n","            (layer_norm_1): LayerNorm((32,), eps=1e-05, elementwise_affine=True)\n","            (attention): SegformerAttention(\n","              (self): SegformerEfficientSelfAttention(\n","                (query): Linear(in_features=32, out_features=32, bias=True)\n","                (key): Linear(in_features=32, out_features=32, bias=True)\n","                (value): Linear(in_features=32, out_features=32, bias=True)\n","                (dropout): Dropout(p=0.0, inplace=False)\n","                (sr): Conv2d(32, 32, kernel_size=(8, 8), stride=(8, 8))\n","                (layer_norm): LayerNorm((32,), eps=1e-05, elementwise_affine=True)\n","              )\n","              (output): SegformerSelfOutput(\n","                (dense): Linear(in_features=32, out_features=32, bias=True)\n","                (dropout): Dropout(p=0.0, inplace=False)\n","              )\n","            )\n","            (drop_path): SegformerDropPath(p=0.014285714365541935)\n","            (layer_norm_2): LayerNorm((32,), eps=1e-05, elementwise_affine=True)\n","            (mlp): SegformerMixFFN(\n","              (dense1): Linear(in_features=32, out_features=128, bias=True)\n","              (dwconv): SegformerDWConv(\n","                (dwconv): Conv2d(128, 128, kernel_size=(3, 3), stride=(1, 1), padding=(1, 1), groups=128)\n","              )\n","              (intermediate_act_fn): GELUActivation()\n","              (dense2): Linear(in_features=128, out_features=32, bias=True)\n","              (dropout): Dropout(p=0.0, inplace=False)\n","            )\n","          )\n","        )\n","        (1): ModuleList(\n","          (0): SegformerLayer(\n","            (layer_norm_1): LayerNorm((64,), eps=1e-05, elementwise_affine=True)\n","            (attention): SegformerAttention(\n","              (self): SegformerEfficientSelfAttention(\n","                (query): Linear(in_features=64, out_features=64, bias=True)\n","                (key): Linear(in_features=64, out_features=64, bias=True)\n","                (value): Linear(in_features=64, out_features=64, bias=True)\n","                (dropout): Dropout(p=0.0, inplace=False)\n","                (sr): Conv2d(64, 64, kernel_size=(4, 4), stride=(4, 4))\n","                (layer_norm): LayerNorm((64,), eps=1e-05, elementwise_affine=True)\n","              )\n","              (output): SegformerSelfOutput(\n","                (dense): Linear(in_features=64, out_features=64, bias=True)\n","                (dropout): Dropout(p=0.0, inplace=False)\n","              )\n","            )\n","            (drop_path): SegformerDropPath(p=0.02857142873108387)\n","            (layer_norm_2): LayerNorm((64,), eps=1e-05, elementwise_affine=True)\n","            (mlp): SegformerMixFFN(\n","              (dense1): Linear(in_features=64, out_features=256, bias=True)\n","              (dwconv): SegformerDWConv(\n","                (dwconv): Conv2d(256, 256, kernel_size=(3, 3), stride=(1, 1), padding=(1, 1), groups=256)\n","              )\n","              (intermediate_act_fn): GELUActivation()\n","              (dense2): Linear(in_features=256, out_features=64, bias=True)\n","              (dropout): Dropout(p=0.0, inplace=False)\n","            )\n","          )\n","          (1): SegformerLayer(\n","            (layer_norm_1): LayerNorm((64,), eps=1e-05, elementwise_affine=True)\n","            (attention): SegformerAttention(\n","              (self): SegformerEfficientSelfAttention(\n","                (query): Linear(in_features=64, out_features=64, bias=True)\n","                (key): Linear(in_features=64, out_features=64, bias=True)\n","                (value): Linear(in_features=64, out_features=64, bias=True)\n","                (dropout): Dropout(p=0.0, inplace=False)\n","                (sr): Conv2d(64, 64, kernel_size=(4, 4), stride=(4, 4))\n","                (layer_norm): LayerNorm((64,), eps=1e-05, elementwise_affine=True)\n","              )\n","              (output): SegformerSelfOutput(\n","                (dense): Linear(in_features=64, out_features=64, bias=True)\n","                (dropout): Dropout(p=0.0, inplace=False)\n","              )\n","            )\n","            (drop_path): SegformerDropPath(p=0.04285714402794838)\n","            (layer_norm_2): LayerNorm((64,), eps=1e-05, elementwise_affine=True)\n","            (mlp): SegformerMixFFN(\n","              (dense1): Linear(in_features=64, out_features=256, bias=True)\n","              (dwconv): SegformerDWConv(\n","                (dwconv): Conv2d(256, 256, kernel_size=(3, 3), stride=(1, 1), padding=(1, 1), groups=256)\n","              )\n","              (intermediate_act_fn): GELUActivation()\n","              (dense2): Linear(in_features=256, out_features=64, bias=True)\n","              (dropout): Dropout(p=0.0, inplace=False)\n","            )\n","          )\n","        )\n","        (2): ModuleList(\n","          (0): SegformerLayer(\n","            (layer_norm_1): LayerNorm((160,), eps=1e-05, elementwise_affine=True)\n","            (attention): SegformerAttention(\n","              (self): SegformerEfficientSelfAttention(\n","                (query): Linear(in_features=160, out_features=160, bias=True)\n","                (key): Linear(in_features=160, out_features=160, bias=True)\n","                (value): Linear(in_features=160, out_features=160, bias=True)\n","                (dropout): Dropout(p=0.0, inplace=False)\n","                (sr): Conv2d(160, 160, kernel_size=(2, 2), stride=(2, 2))\n","                (layer_norm): LayerNorm((160,), eps=1e-05, elementwise_affine=True)\n","              )\n","              (output): SegformerSelfOutput(\n","                (dense): Linear(in_features=160, out_features=160, bias=True)\n","                (dropout): Dropout(p=0.0, inplace=False)\n","              )\n","            )\n","            (drop_path): SegformerDropPath(p=0.05714285746216774)\n","            (layer_norm_2): LayerNorm((160,), eps=1e-05, elementwise_affine=True)\n","            (mlp): SegformerMixFFN(\n","              (dense1): Linear(in_features=160, out_features=640, bias=True)\n","              (dwconv): SegformerDWConv(\n","                (dwconv): Conv2d(640, 640, kernel_size=(3, 3), stride=(1, 1), padding=(1, 1), groups=640)\n","              )\n","              (intermediate_act_fn): GELUActivation()\n","              (dense2): Linear(in_features=640, out_features=160, bias=True)\n","              (dropout): Dropout(p=0.0, inplace=False)\n","            )\n","          )\n","          (1): SegformerLayer(\n","            (layer_norm_1): LayerNorm((160,), eps=1e-05, elementwise_affine=True)\n","            (attention): SegformerAttention(\n","              (self): SegformerEfficientSelfAttention(\n","                (query): Linear(in_features=160, out_features=160, bias=True)\n","                (key): Linear(in_features=160, out_features=160, bias=True)\n","                (value): Linear(in_features=160, out_features=160, bias=True)\n","                (dropout): Dropout(p=0.0, inplace=False)\n","                (sr): Conv2d(160, 160, kernel_size=(2, 2), stride=(2, 2))\n","                (layer_norm): LayerNorm((160,), eps=1e-05, elementwise_affine=True)\n","              )\n","              (output): SegformerSelfOutput(\n","                (dense): Linear(in_features=160, out_features=160, bias=True)\n","                (dropout): Dropout(p=0.0, inplace=False)\n","              )\n","            )\n","            (drop_path): SegformerDropPath(p=0.0714285746216774)\n","            (layer_norm_2): LayerNorm((160,), eps=1e-05, elementwise_affine=True)\n","            (mlp): SegformerMixFFN(\n","              (dense1): Linear(in_features=160, out_features=640, bias=True)\n","              (dwconv): SegformerDWConv(\n","                (dwconv): Conv2d(640, 640, kernel_size=(3, 3), stride=(1, 1), padding=(1, 1), groups=640)\n","              )\n","              (intermediate_act_fn): GELUActivation()\n","              (dense2): Linear(in_features=640, out_features=160, bias=True)\n","              (dropout): Dropout(p=0.0, inplace=False)\n","            )\n","          )\n","        )\n","        (3): ModuleList(\n","          (0): SegformerLayer(\n","            (layer_norm_1): LayerNorm((256,), eps=1e-05, elementwise_affine=True)\n","            (attention): SegformerAttention(\n","              (self): SegformerEfficientSelfAttention(\n","                (query): Linear(in_features=256, out_features=256, bias=True)\n","                (key): Linear(in_features=256, out_features=256, bias=True)\n","                (value): Linear(in_features=256, out_features=256, bias=True)\n","                (dropout): Dropout(p=0.0, inplace=False)\n","              )\n","              (output): SegformerSelfOutput(\n","                (dense): Linear(in_features=256, out_features=256, bias=True)\n","                (dropout): Dropout(p=0.0, inplace=False)\n","              )\n","            )\n","            (drop_path): SegformerDropPath(p=0.08571428805589676)\n","            (layer_norm_2): LayerNorm((256,), eps=1e-05, elementwise_affine=True)\n","            (mlp): SegformerMixFFN(\n","              (dense1): Linear(in_features=256, out_features=1024, bias=True)\n","              (dwconv): SegformerDWConv(\n","                (dwconv): Conv2d(1024, 1024, kernel_size=(3, 3), stride=(1, 1), padding=(1, 1), groups=1024)\n","              )\n","              (intermediate_act_fn): GELUActivation()\n","              (dense2): Linear(in_features=1024, out_features=256, bias=True)\n","              (dropout): Dropout(p=0.0, inplace=False)\n","            )\n","          )\n","          (1): SegformerLayer(\n","            (layer_norm_1): LayerNorm((256,), eps=1e-05, elementwise_affine=True)\n","            (attention): SegformerAttention(\n","              (self): SegformerEfficientSelfAttention(\n","                (query): Linear(in_features=256, out_features=256, bias=True)\n","                (key): Linear(in_features=256, out_features=256, bias=True)\n","                (value): Linear(in_features=256, out_features=256, bias=True)\n","                (dropout): Dropout(p=0.0, inplace=False)\n","              )\n","              (output): SegformerSelfOutput(\n","                (dense): Linear(in_features=256, out_features=256, bias=True)\n","                (dropout): Dropout(p=0.0, inplace=False)\n","              )\n","            )\n","            (drop_path): SegformerDropPath(p=0.10000000149011612)\n","            (layer_norm_2): LayerNorm((256,), eps=1e-05, elementwise_affine=True)\n","            (mlp): SegformerMixFFN(\n","              (dense1): Linear(in_features=256, out_features=1024, bias=True)\n","              (dwconv): SegformerDWConv(\n","                (dwconv): Conv2d(1024, 1024, kernel_size=(3, 3), stride=(1, 1), padding=(1, 1), groups=1024)\n","              )\n","              (intermediate_act_fn): GELUActivation()\n","              (dense2): Linear(in_features=1024, out_features=256, bias=True)\n","              (dropout): Dropout(p=0.0, inplace=False)\n","            )\n","          )\n","        )\n","      )\n","      (layer_norm): ModuleList(\n","        (0): LayerNorm((32,), eps=1e-05, elementwise_affine=True)\n","        (1): LayerNorm((64,), eps=1e-05, elementwise_affine=True)\n","        (2): LayerNorm((160,), eps=1e-05, elementwise_affine=True)\n","        (3): LayerNorm((256,), eps=1e-05, elementwise_affine=True)\n","      )\n","    )\n","  )\n","  (decode_head): SegformerDecodeHead(\n","    (linear_c): ModuleList(\n","      (0): SegformerMLP(\n","        (proj): Linear(in_features=32, out_features=256, bias=True)\n","      )\n","      (1): SegformerMLP(\n","        (proj): Linear(in_features=64, out_features=256, bias=True)\n","      )\n","      (2): SegformerMLP(\n","        (proj): Linear(in_features=160, out_features=256, bias=True)\n","      )\n","      (3): SegformerMLP(\n","        (proj): Linear(in_features=256, out_features=256, bias=True)\n","      )\n","    )\n","    (linear_fuse): Conv2d(1024, 256, kernel_size=(1, 1), stride=(1, 1), bias=False)\n","    (batch_norm): BatchNorm2d(256, eps=1e-05, momentum=0.1, affine=True, track_running_stats=True)\n","    (activation): ReLU()\n","    (dropout): Dropout(p=0.1, inplace=False)\n","    (classifier): Conv2d(256, 2, kernel_size=(1, 1), stride=(1, 1))\n","  )\n",")"]},"metadata":{},"execution_count":18}],"source":["model = SegformerForSemanticSegmentation.from_pretrained(\n","    \"nvidia/mit-b0\",\n","    num_labels=num_classes,\n","    ignore_mismatched_sizes=True\n",")\n","device = torch.device(\"cuda\" if torch.cuda.is_available() else \"cpu\")\n","model.to(device)"]},{"cell_type":"code","execution
…
